quantanization/tflite_quantized_model.tflite (tflite, 11864 bytes, 5 tensors)

sequential/quant_dense/MatMul;sequential/quant_dense/LastValueQuant/FakeQuantWithMinMaxVars i1 [100, 12] scale=0.009138478 zero_point=0
-0.036553912 0.100523256 -0.630555 0.054830868 -0.26501587 -0.009138478 0.100523256 0.15535413
0.100523256 0.036553912 -0.109661736 0.17363109 0.22846195 0.14621565 -0.6671089 -0.1644926
-0.4569239 0.073107824 0.24673891 0.009138478 -0.100523256 0.25587738 0.19190803 0.17363109
-0.53003174 -0.109661736 0.027415434 0.24673891 -0.15535413 -0.6031395 -0.34726217 0.18276957
0.5026163 -0.027415434 0.0822463 0.13707717 -0.15535413 0.0822463 0.09138478 -0.036553912
-0.109661736 -0.2924313 0.14621565 -0.04569239 -0.100523256 0.26501587 0.21932347 0.18276957
-0.3746776 -0.109661736 0.41123152 0.0 0.21932347 -0.19190803 0.21018499 -0.036553912
0.24673891 0.04569239 0.036553912 -0.14621565 0.22846195 0.2924313 -0.74021673 0.25587738
0.100523256 -0.36553913 -0.04569239 0.118800215 0.15535413 0.018276956 -0.21932347 0.1644926
0.22846195 -0.018276956 0.31984672 0.31984672 -0.25587738 0.15535413 0.036553912 -0.036553912
-0.054830868 -0.073107824 -0.027415434 -0.0822463 0.036553912 0.073107824 -0.5026163 -0.109661736
-0.12793869 0.0822463 -0.054830868 -0.19190803 -0.063969344 0.36553913 -0.17363109 0.09138478
-0.009138478 -0.20104651 0.0 -0.15535413 -0.21932347 0.13707717 -0.073107824 -0.21932347
-0.054830868 -0.027415434 -0.20104651 -0.15535413 -0.063969344 -0.17363109 0.09138478 -0.063969344
0.027415434 -0.036553912 -0.17363109 -0.19190803 -0.19190803 0.027415434 -0.15535413 0.118800215
-0.34726217 0.15535413 -0.30156976 -0.3289852 -0.21932347 -0.036553912 0.04569239 0.21932347
0.26501587 0.21018499 0.28329283 -0.027415434 0.26501587 -0.109661736 -0.53003174 -0.19190803
-1.0417864 -0.100523256 0.036553912 0.17363109 -0.0822463 0.14621565 0.15535413 0.23760043
0.15535413 0.109661736 -0.5848626 0.22846195 0.23760043 -0.25587738 0.04569239 -0.054830868
-0.009138478 0.073107824 -0.063969344 0.018276956 -0.04569239 0.23760043 0.33812368 -0.1644926
-0.63969344 -0.6853858 0.30156976 -0.14621565 -0.18276957 -0.15535413 -0.41123152 0.14621565
0.0 0.0822463 0.054830868 0.5026163 -0.063969344 0.59400105 -0.31984672 -0.3289852
-0.063969344 0.036553912 -0.0822463 0.073107824 0.009138478 0.18276957 -0.19190803 0.19190803
0.109661736 0.0 -0.036553912 0.27415434 -0.42950848 0.22846195 -0.04569239 0.009138478
0.30156976 -0.1644926 0.6214165 0.09138478 0.118800215 -0.31984672 -0.26501587 -0.20104651
0.23760043 0.073107824 -0.09138478 -0.04569239 -0.14621565 0.009138478 -0.55744714 0.24673891
-0.09138478 0.41123152 0.23760043 -0.34726217 0.28329283 -0.13707717 0.26501587 0.018276956
-0.018276956 0.054830868 0.13707717 -0.19190803 -0.073107824 0.054830868 0.04569239 -0.14621565
-0.1644926 -0.17363109 -0.12793869 -0.19190803 0.27415434 -0.009138478 -0.12793869 -0.18276957
0.25587738 0.69452435 -0.054830868 -0.0822463 -0.118800215 0.1644926 -0.1644926 0.100523256
-0.40209302 -0.100523256 0.09138478 -0.36553913 0.054830868 -0.5391702 0.25587738 0.35640064
-0.21932347 -0.12793869 0.30156976 0.027415434 0.12793869 0.13707717 0.46606237 -0.22846195
00000000: fc0b bb06 e3ff 0b11 0b04 f413 1910 b7ee
00000010: ce08 1b01 f51c 1513 c6f4 031b efbe da14
00000020: 37fd 090f ef09 0afc f4e0 10fb f51d 1814
00000030: d7f4 2d00 18eb 17fc 1b05 04f0 1920 af1c
00000040: 0bd8 fb0d 1102 e812 19fe 2323 e411 04fc
00000050: faf8 fdf7 0408 c9f4 f209 faeb f928 ed0a
00000060: ffea 00ef e80f f8e8 fafd eaef f9ed 0af9
00000070: 03fc edeb eb03 ef0d da11 dfdc e8fc 0518
00000080: 1d17 1ffd 1df4 c6eb 8ef5 0413 f710 111a
00000090: 110c c019 1ae4 05fa ff08 f902 fb1a 25ee
000000a0: bab5 21f0 ecef d310 0009 0637 f941 dddc
000000b0: f904 f708 0114 eb15 0c00 fc1e d119 fb01
000000c0: 21ee 440a 0ddd e3ea 1a08 f6fb f001 c31b
000000d0: f62d 1ada 1ff1 1d02 fe06 0feb f806 05f0
000000e0: eeed f2eb 1eff f2ec 1c4c faf7 f312 ee0b
000000f0: d4f5 0ad8 06c5 1c27 e8f2 2103 0e0f 33e7

sequential/quant_dense_1/MatMul;sequential/quant_dense_1/LastValueQuant/FakeQuantWithMinMaxVars i1 [50, 100] scale=0.01840334 zero_point=0
-0.0920167 -0.22084008 0.07361336 -0.16563006 0.12882338 0.0 0.12882338 0.12882338
0.16563006 0.11042004 -0.22084008 0.0920167 0.0 -0.07361336 -0.11042004 0.12882338
-0.12882338 0.0920167 -0.12882338 -0.01840334 0.05521002 -0.0920167 0.12882338 0.11042004
-0.0920167 -0.14722672 -0.11042004 -0.0920167 -0.05521002 0.16563006 0.01840334 0.1840334
0.03680668 -0.1840334 0.0 0.0 -0.12882338 -0.12882338 0.0920167 -0.16563006
0.11042004 -0.12882338 -0.03680668 -0.20243675 0.07361336 -0.1840334 0.12882338 0.0920167
0.11042004 0.0920167 0.03680668 -0.11042004 -0.16563006 -0.03680668 -0.03680668 -0.0920167
-0.16563006 0.0920167 -0.11042004 0.20243675 -0.16563006 -0.07361336 -0.14722672 -0.05521002
-0.01840334 -0.05521002 0.0 -0.14722672 0.07361336 -0.01840334 -0.01840334 -0.07361336
0.01840334 -0.05521002 -0.16563006 -0.16563006 0.0920167 0.03680668 -0.05521002 0.01840334
-0.0920167 -0.11042004 0.0920167 0.07361336 0.0 -0.01840334 0.0920167 0.01840334
0.03680668 0.0 0.12882338 -0.0920167 -0.12882338 0.03680668 -0.20243675 0.12882338
-0.16563006 0.1840334 -0.20243675 0.03680668 0.07361336 0.12882338 0.44168016 0.16563006
-0.14722672 0.12882338 -0.1840334 -0.05521002 0.03680668 -0.0920167 0.03680668 0.2760501
0.23924342 0.4048735 -0.5336969 -0.01840334 0.2760501 0.0920167 -0.05521002 -0.29445344
0.05521002 0.16563006 -0.07361336 0.1840334 0.22084008 -0.11042004 -0.29445344 -0.3680668
0.01840334 -1.8219306 -0.29445344 -0.3680668 0.3128568 0.0 0.07361336 -0.05521002
-0.2760501 -0.14722672 -0.07361336 0.25764677 0.0 -1.0857971 -0.11042004 -0.01840334
-0.2760501 0.07361336 1.619494 0.3128568 0.14722672 0.1840334 -0.07361336 0.12882338
0.12882338 -0.16563006 0.0 0.07361336 -0.3128568 0.3128568 0.11042004 0.29445344
0.25764677 -0.03680668 0.03680668 -0.16563006 0.1840334 -0.0920167 -0.25764677 -0.34966347
-0.0920167 -0.4600835 0.5336969 0.12882338 0.05521002 -0.20243675 0.05521002 -0.23924342
-0.11042004 0.05521002 0.0920167 -1.1594105 0.0 0.22084008 -0.07361336 -0.3128568
-0.6809236 -0.03680668 -0.0920167 -0.07361336 0.14722672 0.12882338 0.0 -0.07361336
0.1840334 0.05521002 0.23924342 0.14722672 -0.29445344 -0.29445344 0.0920167 0.22084008
-0.3680668 -0.5336969 -0.44168016 -0.22084008 -0.29445344 0.07361336 0.16563006 -0.47848684
0.0 -0.12882338 -0.01840334 -0.4232768 -0.01840334 -0.6809236 -0.07361336 -0.0920167
0.25764677 -0.25764677 -0.11042004 -0.20243675 -0.16563006 -0.11042004 -0.0920167 0.14722672
0.01840334 0.12882338 -0.3680668 0.05521002 0.34966347 -0.9937804 0.29445344 0.11042004
0.14722672 -0.01840334 -0.14722672 -0.4600835 -0.1840334 0.25764677 0.25764677 0.44168016
0.0 -0.22084008 0.11042004 0.1840334 -0.8833603 0.5521002 1.0673938 -0.57050353
-0.2760501 0.2760501 -0.809747 0.34966347 0.0 0.25764677 0.12882338 -0.14722672
00000000: fbf4 04f7 0700 0707 0906 f405 00fc fa07
00000010: f905 f9ff 03fb 0706 fbf8 fafb fd09 010a
00000020: 02f6 0000 f9f9 05f7 06f9 fef5 04f6 0705
00000030: 0605 02fa f7fe fefb f705 fa0b f7fc f8fd
00000040: fffd 00f8 04ff fffc 01fd f7f7 0502 fd01
00000050: fbfa 0504 00ff 0501 0200 07fb f902 f507
00000060: f70a f502 0407 1809 f807 f6fd 02fb 020f
00000070: 0d16 e3ff 0f05 fdf0 0309 fc0a 0cfa f0ec
00000080: 019d f0ec 1100 04fd f1f8 fc0e 00c5 faff
00000090: f104 5811 080a fc07 07f7 0004 ef11 0610
000000a0: 0efe 02f7 0afb f2ed fbe7 1d07 03f5 03f3
000000b0: fa03 05c1 000c fcef dbfe fbfc 0807 00fc
000000c0: 0a03 0d08 f0f0 050c ece3 e8f4 f004 09e6
000000d0: 00f9 ffe9 ffdb fcfb 0ef2 faf5 f7fa fb08
000000e0: 0107 ec03 13ca 1006 08ff f8e7 f60e 0e18
000000f0: 00f4 060a d01e 3ae1 f10f d413 000e 07f8

sequential/quant_dense_2/MatMul;sequential/quant_dense_2/LastValueQuant/FakeQuantWithMinMaxVars i1 [12, 50] scale=0.011900164 zero_point=0
-0.22610313 0.3689051 0.6188085 -0.6188085 0.7140099 -0.5712079 0.071400985 0.08330115
-0.071400985 0.23800328 0.11900164 0.21420296 0.4284059 -0.011900164 -0.10710148 -0.24990344
0.88061213 -0.071400985 0.20230278 0.22610313 0.26180363 0.08330115 0.5950082 -0.05950082
0.071400985 0.17850247 -0.28560394 0.34510475 0.40460557 -0.035700493 0.48790672 0.8330115
-0.1666023 -0.3927054 0.11900164 -0.10710148 -0.10710148 -0.1666023 0.023800328 -0.17850247
-0.4641064 -0.41650575 0.011900164 0.21420296 0.2975041 -0.10710148 0.34510475 0.15470213
0.1666023 -0.30940425 -0.09520131 0.14280197 0.08330115 -0.2975041 0.38080525 -0.6664092
0.21420296 -0.09520131 -0.5355074 0.24990344 0.24990344 -0.035700493 0.071400985 0.011900164
-0.40460557 0.17850247 0.7735107 -0.13090181 0.40460557 0.035700493 -0.14280197 0.21420296
0.6069084 0.30940425 0.0 0.13090181 -0.17850247 0.1666023 0.011900164 -0.20230278
-0.011900164 0.3927054 0.40460557 -0.09520131 0.26180363 -0.13090181 -0.22610313 -0.17850247
-0.20230278 0.23800328 0.071400985 -1.0948151 0.0 0.08330115 0.41650575 -0.3332046
0.2975041 0.40460557 0.14280197 -0.6902095 -0.1666023 -0.21420296 -0.7497103 0.80921113
-0.5712079 0.08330115 -0.035700493 0.22610313 0.2975041 0.19040263 0.20230278 0.49980688
-0.5712079 -0.14280197 -0.05950082 0.047600657 -0.51170707 -0.035700493 -0.35700494 0.41650575
0.17850247 -0.21420296 -0.7140099 0.52360725 -0.14280197 -0.10710148 0.4284059 -0.7021097
0.011900164 0.20230278 -0.3689051 -0.5355074 0.047600657 0.011900164 -0.22610313 -0.17850247
0.34510475 0.3332046 -0.071400985 0.10710148 0.23800328 0.32130444 -0.035700493 0.15470213
0.32130444 -0.08330115 -0.54740757 -0.26180363 0.023800328 0.22610313 -0.13090181 -0.08330115
-0.30940425 -1.309018 0.8211113 0.17850247 0.6664092 -0.035700493 -0.4641064 0.45220625
0.52360725 0.47600657 -0.5593077 -0.11900164 0.20230278 -0.28560394 0.22610313 -0.22610313
-0.26180363 0.19040263 -0.17850247 0.20230278 -0.023800328 0.6307087 0.035700493 -0.15470213
0.7497103 -0.49980688 -0.34510475 0.21420296 0.047600657 -0.26180363 0.10710148 0.13090181
0.40460557 0.2975041 -0.22610313 0.34510475 -0.27370378 -0.19040263 0.13090181 -0.17850247
0.19040263 0.5355074 0.22610313 0.09520131 0.40460557 0.44030607 0.21420296 -0.071400985
0.20230278 0.35700494 -0.21420296 0.7854108 0.27370378 -0.4641064 -0.5593077 -0.09520131
0.28560394 -0.1666023 0.011900164 -0.10710148 0.7616105 0.09520131 0.22610313 -0.34510475
-0.09520131 0.20230278 0.035700493 0.20230278 -0.10710148 0.23800328 0.40460557 -0.21420296
0.14280197 0.40460557 0.28560394 -0.23800328 0.48790672 -0.40460557 0.26180363 -0.47600657
-0.2975041 -0.09520131 0.09520131 -0.58310807 -0.99961376 0.047600657 -0.28560394 -0.21420296
-0.4284059 0.5593077 -0.51170707 0.22610313 -0.05950082 -0.17850247 -0.023800328 -0.21420296
0.40460557 0.1666023 -0.035700493 -0.3689051 -0.3689051 0.05950082 -0.13090181 -0.24990344
00000000: ed1f 34cc 3cd0 0607 fa14 0a12 24ff f7eb
00000010: 4afa 1113 1607 32fb 060f e81d 22fd 2946
00000020: f2df 0af7 f7f2 02f1 d9dd 0112 19f7 1d0d
00000030: 0ee6 f80c 07e7 20c8 12f8 d315 15fd 0601
00000040: de0f 41f5 2203 f412 331a 000b f10e 01ef
00000050: ff21 22f8 16f5 edf1 ef14 06a4 0007 23e4
00000060: 1922 0cc6 f2ee c144 d007 fd13 1910 112a
00000070: d0f4 fb04 d5fd e223 0fee c42c f4f7 24c5
00000080: 0111 e1d3 0401 edf1 1d1c fa09 141b fd0d
00000090: 1bf9 d2ea 0213 f5f9 e692 450f 38fd d926
000000a0: 2c28 d1f6 11e8 13ed ea10 f111 fe35 03f3
000000b0: 3fd6 e312 04ea 090b 2219 ed1d e9f0 0bf1
000000c0: 102d 1308 2225 12fa 111e ee42 17d9 d1f8
000000d0: 18f2 01f7 4008 13e3 f811 0311 f714 22ee
000000e0: 0c22 18ec 29de 16d8 e7f8 08cf ac04 e8ee
000000f0: dc2f d513 fbf1 feee 220e fde1 e105 f5eb

sequential/quant_dense_3/MatMul;sequential/quant_dense_3/LastValueQuant/FakeQuantWithMinMaxVars i1 [10, 12] scale=0.012202936 zero_point=0
0.4759145 0.4026969 -0.012202936 -0.25626165 0.0 -0.122029364 -0.3660881 -0.19524698
1.159279 1.5497729 0.2318558 -0.34168223 0.5857409 -0.10982642 -0.5857409 -0.28066754
0.5369292 0.4759145 0.122029364 0.20744991 0.7809879 1.1714818 0.5979439 0.6711615
0.5979439 0.6711615 -0.08542056 0.5247263 -0.7443791 -0.5369292 -0.25626165 -0.5125233
1.1714818 0.8420026 -0.96403193 -0.69556737 -0.24405873 -0.09762349 0.5979439 0.17084111
0.9030173 0.18304405 0.6711615 0.19524698 -0.5491321 -0.9396261 0.19524698 0.19524698
-0.08542056 -0.21965285 0.5003204 0.28066754 0.81759673 -0.24405873 0.5613351 -0.20744991
-0.69556737 -1.0982642 -0.20744991 0.048811745 0.3050734 0.25626165 0.15863816 0.4759145
-0.768785 0.25626165 -0.4026969 -0.62234974 0.5857409 1.4399465 -0.378291 -1.1226702
0.31727633 -0.122029364 -0.14643523 -0.5125233 -0.3660881 0.3660881 -0.18304405 -0.024405872
0.0 -0.2318558 -0.15863816 -0.5003204 -0.28066754 -0.8420026 0.89081436 -0.19524698
0.64675564 0.21965285 -0.35388514 -1.2202936 -0.42710277 -0.2318558 0.4759145 0.28066754
0.65895855 -0.25626165 -0.28066754 0.4759145 -0.68336445 -0.14643523 -0.45150864 0.2684646
0.89081436 1.0006407 0.0 0.14643523 -0.6101468 -0.036608808 0.4393057 0.5613351
0.9396261 -0.19524698 -0.08542056 -0.08542056 -0.756582 -0.89081436 0.4393057 0.5857409
00000000: 2721 ffeb 00f6 e2f0 5f7f 13e4 30f7 d0e9
00000010: 2c27 0a11 4060 3137 3137 f92b c3d4 ebd6
00000020: 6045 b1c7 ecf8 310e 4a0f 3710 d3b3 1010
00000030: f9ee 2917 43ec 2eef c7a6 ef04 1915 0d27
00000040: c115 dfcd 3076 e1a4 1af6 f4d6 e21e f1fe
00000050: 00ed f3d7 e9bb 49f0 3512 e39c dded 2717
00000060: 36eb e927 c8f4 db16 4952 000c cefd 242e
00000070: 4df0 f9f9 c2b7 2430

sequential/quant_dense_4/MatMul;sequential/quant_dense_4/LastValueQuant/FakeQuantWithMinMaxVars i1 [1, 10] scale=0.012034569 zero_point=0
0.90259266 1.4200791 0.80631614 -0.3490025 -0.9386964 0.8544544 0.22865681 -1.5283903
0.63783216 -0.83038527
00000000: 4b76 43e3 b247 1381 35bb
