quantanization/tflite_model.tflite (tflite, 31248 bytes, 9 tensors)

arith.constant f4 [1, 10]
00000000: 41f3 653f e1c2 b53f 58c4 4f3f 4052 afbe
00000010: b581 70bf cd63 5a3f 24b4 6c3e 6cd3 c3bf
00000020: 50c0 213f b4e2 54bf
0.898243 1.4200097 0.8115897 -0.3424244 -0.9394792 0.85308534 0.23115593 -1.5298896
0.6318407 -0.8315842

arith.constant1 f4 [10, 12]
00000000: 9f70 f43e d188 d33e bb48 f3bb ad7d 7cbe
00000010: 821b 93ba e960 fdbd 8001 b8be 3ebd 52be
00000020: 6baa 933f 5922 c53f ef48 733e fd08 acbe
00000030: f766 133f 9493 f3bd 7b07 16bf 1bb4 91be
00000040: 64a3 093f ed8a f53e be56 f33d 1a90 5c3e
00000050: bf3d 463f 23dd 943f d6a1 1a3f 01a0 2b3f
00000060: 0423 183f 8d73 2a3f 131c acbd f37e 073f
00000070: ebb7 3ebf 2b6b 0abf 031b 82be 5429 06bf
00000080: 0ce2 943f a30a 523f a110 74bf f5fb 32bf
00000090: 0bae 72be f693 c5bd d123 183f d155 363e
000000a0: badd 663f 9d2f 383e bfca 293f 0ad6 413e
000000b0: 4eaf 0bbf f188 6fbf ff2f 463e 7990 493e
000000c0: 146a a8bd 7d0c 66be 1461 fc3e 696f 8d3e
000000d0: a330 523f 1a5b 77be efee 0e3f bac6 51be
000000e0: 9ac7 31bf 2fd6 8abf 1c0d 5bbe 70ce 4c3d
000000f0: db36 a13e 17f9 893e ba60 293e 9da6 f73e
00000100: abbe 45bf 2656 843e 6cce cbbe 971c 1bbf
00000110: adcd 123f 7310 b63f dada babe 94e3 8dbf
00000120: f8b2 a03e 7c56 fdbd 3ceb 18be 52f2 03bf
00000130: 3042 babe 5e05 b93e e81b 41be 8019 d0bc
00000140: 8095 c6bb bcf2 67be 3e39 25be dc44 01bf
00000150: dd00 8ebe 4b98 59bf 388a 643f 8291 3ebe
00000160: 1d0a 263f 47cf 613e e492 b2be ff5e 9ebf
00000170: 83e9 d6be 6f64 68be 119a f33e 13d4 8f3e
00000180: 0a30 283f 5287 83be 339f 90be 3c12 f63e
00000190: 0f29 30bf 419e 14be 72b5 e7be 5289 903e
000001a0: 366f 623f e6c5 7d3f c701 d03a 33fb 103e
000001b0: 7d26 1bbf 5801 2ebd 6160 df3e 28c5 0f3f
000001c0: 865d 6f3f 0083 49be 0822 b3bd 746e abbd
000001d0: a68c 3ebf ae31 62bf 1dee dc3e 76c2 153f
0.47742173 0.4131532 -0.0074244416 -0.24657317 -0.0011223408 -0.12372 -0.35938644 -0.20580003
1.1536382 1.5401107 0.2375829 -0.33600608 0.57578987 -0.11893383 -0.58605164 -0.28457722
0.5376494 0.47957554 0.11881779 0.21539345 0.7743797 1.1629986 0.6040319 0.6704102
0.5942843 0.66582566 -0.08403792 0.52928084 -0.74499387 -0.54069775 -0.25411233 -0.5240681
1.1631484 0.8204748 -0.95337874 -0.69915706 -0.23699205 -0.09647362 0.5942965 0.17806174
0.9018208 0.17986913 0.6632499 0.18929306 -0.5456437 -0.9356833 0.19354247 0.19684018
-0.08223358 -0.22465701 0.49292815 0.27624062 0.82105464 -0.24155846 0.55833334 -0.20485964
-0.6944519 -1.0846614 -0.2139172 0.05000156 0.31487164 0.26947853 0.16540805 0.48369303
-0.7724406 0.25846976 -0.39805925 -0.605905 0.57345086 1.422377 -0.36495095 -1.1085076
0.31386542 -0.12370011 -0.14933485 -0.51541626 -0.36378622 0.36136907 -0.18858302 -0.025402784
-0.0060603023 -0.2265119 -0.16135117 -0.50495696 -0.27735034 -0.84998006 0.89273405 -0.18610194
0.6485918 0.22051726 -0.34877694 -1.237274 -0.4197503 -0.22694562 0.4757848 0.28091487
0.656983 -0.2568918 -0.2824646 0.48060787 -0.6881265 -0.14513494 -0.4525562 0.28229767
0.88450944 0.99130094 0.001586967 0.14158325 -0.60605603 -0.04248175 0.4362822 0.5616021
0.9350208 -0.19678879 -0.08746725 -0.08370677 -0.7443336 -0.88357055 0.43150416 0.5849985

arith.constant2 f4 [12, 50]
00000000: 967b 63be 986d bb3e fa32 1c3f 71db 1cbf
00000010: a711 363f b80c 16bf 3272 843d 226d a53d
00000020: 5ca5 88bd 3572 6b3e db6d ef3d 7fbd 603e
00000030: efb7 d63e 356c 79bc 966c ebbd df6b 7fbe
00000040: e33d 5d3f 67d9 8cbd b939 533e 2237 633e
00000050: c032 853e 7063 b63d 38bc 153f 3285 85bd
00000060: c68b 9b3d 221f 313e c406 91be 9bea a93e
00000070: abc1 cb3e 0973 1fbd e77b 013f 74d8 4f3f
00000080: 5e1b 2cbe 6e86 c8be 4f3b e83d f3a6 dcbd
00000090: cd4a e0bd b587 2cbe 5687 cd3c c95f 32be
000000a0: 1134 ebbe 9612 d5be 3654 703c 4cc5 5e3e
000000b0: 24a6 943e 2ea1 e5bd 89dc b43e 09fe 183e
000000c0: ba00 2e3e d659 9bbe ac43 bdbd 34a2 0f3e
000000d0: 5148 af3d 0607 94be 89dd c43e 6b00 2bbf
000000e0: d622 693e efc3 bebd a5b8 08bf 8a22 833e
000000f0: 4819 833e ca70 08bd 5ef3 943d 7512 4e3c
00000100: 1a90 ccbe 3cbe 403e 1758 443f d2e9 07be
00000110: 4d5d d53e db78 313d 9b78 0dbe db97 603e
00000120: 697e 193f 3d41 a33e 2ba0 8dbb 4362 033e
00000130: 4505 29be 84da 283e 6b8a b83c 06ad 46be
00000140: e0e0 163c 9fa1 c03e 2efa d13e 02f3 c4bd
00000150: 7571 893e 9a84 09be ce6c 67be e639 38be
00000160: 8c14 4cbe 7fe2 783e 1178 9f3d 090c 8abf
00000170: 708a 1a3c c3af a43d b887 db3e d403 acbe
00000180: e77e 9c3e db1f cd3e e10a 193e 712c 2dbf
00000190: 2f21 2abe 3750 54be 39fb 3ebf efb7 4e3f
000001a0: 7bcf 12bf e896 ac3d 09f3 efbc bfd3 703e
000001b0: f637 943e c8f5 473e 6fe9 543e a5f5 003f
000001c0: f384 11bf a193 13be 4b21 64bd 829d 353d
000001d0: e2e7 febe 429c 13bd c9b6 b8be 8ff4 d73e
000001e0: 09ea 393e bebb 5abe 3c7a 35bf 8132 063f
000001f0: 491d 0fbe 8805 cebd cde4 da3e 65af 31bf
00000200: 4da9 663c 05b3 553e fe07 c0be 7e71 03bf
00000210: 4950 4b3d 7a5d 6e3c 922e 64be 0ae7 2ebe
00000220: 159c b33e afec a93e 9209 99bd b816 dc3d
00000230: 3a17 6a3e dad6 a73e 7f88 edbc 237d 213e
00000240: d83e a63e 3d8e adbd 8d95 0bbf b6b4 83be
00000250: e34f 923c 793d 623e 3406 00be 70bb b2bd
00000260: 3f3b a3be b22d a3bf 2329 533f bee1 343e
00000270: ce6b 293f 43de ecbc ed74 f2be 6e84 e63e
00000280: 52b7 053f 2ed8 f53e b521 0dbf c482 f0bd
00000290: 6713 4e3e 7676 91be 36ac 7e3e ffa6 67be
000002a0: dcca 89be 1b97 443e 55cc 32be 1677 533e
000002b0: 93e9 84bc c61e 203f 47f9 103d 586a 1fbe
000002c0: 6cab 423f a771 fdbe 10de aabe 3518 633e
000002d0: 9674 283d 4339 7abe 443d e33d eeb3 f73d
000002e0: 07ad ce3e 1121 9b3e de8f 67be 2b35 ae3e
000002f0: f747 8cbe 60f2 42be 72d4 f83d 77cc 3cbe
00000300: 2ec0 4a3e 9733 083f 55e2 6d3e a84f bc3d
00000310: 7920 d23e 0ed5 e03e 63f7 573e 39ab 9abd
00000320: 010a 4f3e 3f4f b23e bfff 6abe 1b63 483f
00000330: 9070 7b3e 83b7 ebbe 094b 12bf b3dd c9bd
00000340: 9a7c 913e 730a 34be 9f17 813c dcdd d9bd
00000350: 0fec 443f e51f c43d e6f7 6b3e 3588 b3be
00000360: 6691 b0bd 98ba 4e3e 1188 9d3c d4ed 443e
00000370: 70a7 d4bd 134b 6f3e ac31 c93e 09c8 54be
00000380: 50a6 0e3e ab57 c83e 0a6d 913e aa13 73be
00000390: b44e fb3e 78cb d0be 5368 823e e2ed e9be
000003a0: 1363 9dbe 17f7 ccbd 3a89 c83d b3bc 13bf
000003b0: eee0 81bf 27e5 523d 15f5 8fbe 85a9 60be
000003c0: 007d e4be c6fc 0a3f 774f 06bf cb2c 653e
000003d0: 50c1 57bd 5358 33be 8427 e6bc 79e8 56be
000003e0: 18e0 c93e 89ff 1d3e c0c3 13bd bc50 bebe
000003f0: 7f41 bdbe 62e7 623d ca83 09be 282c 7ebe
-0.22215113 0.3660705 0.61015284 -0.6127234 0.71120685 -0.5861316 0.064670935 0.08077456
-0.06672165 0.22992785 0.11690875 0.21947287 0.41937205 -0.0152235525 -0.114953205 -0.24943493
0.86422557 -0.06877404 0.20627488 0.22189 0.26015282 0.08905685 0.58490324 -0.065195456
0.07595019 0.17297032 -0.28325474 0.33186802 0.39796194 -0.038928065 0.50579685 0.81189656
-0.16807315 -0.39165062 0.11339437 -0.107740305 -0.10951767 -0.16848643 0.025088947 -0.17419352
-0.4593816 -0.41615742 0.014668515 0.2175495 0.29033005 -0.11212383 0.35324505 0.14940657
0.16992465 -0.30341977 -0.09241423 0.1402672 0.08558715 -0.28911608 0.38450268 -0.6679751
0.22767195 -0.09314715 -0.53406745 0.2561229 0.25605226 -0.03331069 0.07272981 0.012577643
-0.3995369 0.18822569 0.76696914 -0.13272789 0.41672745 0.043328147 -0.13815539 0.21932928
0.5995851 0.3188571 -0.004322072 0.12830453 -0.16505916 0.16489607 0.02252694 -0.1940194
0.009208888 0.37623307 0.41011184 -0.096166626 0.26844373 -0.1342949 -0.226001 -0.17990837
-0.19929713 0.24305151 0.07786573 -1.0784923 0.00943242 0.080413364 0.42876983 -0.3359667
0.3056557 0.40063366 0.14945556 -0.6764594 -0.16614221 -0.20733725 -0.74602085 0.8074941
-0.5734784 0.084272206 -0.029290693 0.23518275 0.28948945 0.19527352 0.20792173 0.50374824
-0.5684349 -0.14411785 -0.055695813 0.044339664 -0.49786288 -0.03603769 -0.36076954 0.4217877
0.18155684 -0.2136068 -0.7088964 0.5242081 -0.13976015 -0.10059649 0.42752686 -0.69408256
0.01407845 0.20869072 -0.37506098 -0.5134505 0.049637113 0.014548654 -0.2228339 -0.17080322
0.3508002 0.33188388 -0.074725285 0.10746521 0.22860423 0.32781106 -0.02899575 0.15770392
0.3246982 -0.084743954 -0.5452507 -0.2572381 0.017860359 0.22093762 -0.12502366 -0.08727157
-0.3188114 -1.274832 0.82484645 0.17664239 0.6618012 -0.028914576 -0.47354832 0.4502291
0.5223285 0.48016495 -0.5512956 -0.117436916 0.20124589 -0.2841069 0.24870381 -0.22622298
-0.26912582 0.19198267 -0.17460759 0.20650896 -0.016224658 0.62546957 0.03539398 -0.1556791
0.7604282 -0.49500772 -0.33372545 0.22177203 0.04112681 -0.24435906 0.1109567 0.12094866
0.40366384 0.30298665 -0.22613475 0.3402494 -0.27398655 -0.19037771 0.12149896 -0.18437372
0.19799873 0.5320372 0.2323087 0.09194881 0.410404 0.43912548 0.21090464 -0.075521894
0.2021866 0.34826085 -0.22949122 0.7827622 0.24554658 -0.46038446 -0.57145745 -0.09856739
0.28415376 -0.17582111 0.015758334 -0.106380194 0.76922697 0.09576396 0.23043784 -0.35064855
-0.086214826 0.20188367 0.01922992 0.19231349 -0.10383499 0.23368482 0.3929571 -0.20779432
0.1393063 0.39129385 0.28403503 -0.2373797 0.49083483 -0.40780234 0.25470218 -0.45689303
-0.3073965 -0.10008066 0.09791799 -0.5770981 -1.0146768 0.051488068 -0.2811667 -0.21939667
-0.44626617 0.5429195 -0.52465004 0.22380368 -0.05267459 -0.17514162 -0.028095014 -0.20987119
0.39428782 0.1542951 -0.036075354 -0.3717097 -0.36964032 0.055396445 -0.1342918 -0.24821532

arith.constant3 f4 [50, 100]
00000000: 5b56 c8bd 4476 5dbe bfe4 963d 36e1 27be
00000010: 2179 013e 21c8 d13b 0e3a 0a3e 3992 013e
00000020: 51fe 2d3e 6371 e63d 01ea 58be 4ffd c43d
00000030: f7e3 ec3b 480c 91bd 88d7 d6bd 0927 003e
00000040: 8bb7 f5bd ab3c cf3d cafd 07be 1721 d6bc
00000050: 36ef 453d 454c c9bd 2f2e fa3d 776c ec3d
00000060: aa65 b2bd 3ac9 14be 14fa e8bd 64f1 bbbd
00000070: 3454 61bd 08d4 303e a863 253c 594f 383e
00000080: 8e4a 113d cfb5 34be 1343 dcbb d919 22bb
00000090: 60a1 0abe 18a5 0bbe 6c91 c63d d847 23be
000000a0: b255 ee3d 46d4 0abe 0565 2bbd 5b5c 4ebe
000000b0: 4ca6 8b3d bd94 44be a704 ff3d 909e b53d
000000c0: 7439 d33d bdcd ae3d 95bb 323d e22b d9bd
000000d0: 0db1 30be c40c febc b618 ebbc 4388 aebd
000000e0: a472 32be 05b8 b13d 6037 e7bd ea8c 473e
000000f0: df40 23be 2dd6 88bd 644a 18be 3858 6fbd
00000100: 97b0 d9bc b0ce 46bd 1ed4 87ba bf70 19be
00000110: 332d a13d d9e6 c4bc 005c 4abc 9ada 8bbd
00000120: 3d7c bb3c 5aa5 46bd 3a6e 2fbe dad2 27be
00000130: b9a6 c53d 6a01 173d 5f5a 5bbd 989c d43c
00000140: 4b3f c4bd 6c25 edbd c30f b63d 2cc7 a83d
00000150: 4b4b 99bb 5ec9 dfbc bceb b63d aae8 af3c
00000160: 8f29 193d adf2 8b39 064a f73d b0bf c2bd
00000170: 7d68 f7bd b699 f93c f7e3 49be 3064 003e
00000180: 32d8 2fbe 4b44 3d3e 4d17 4dbe cad5 023d
00000190: b1bd 7d3d 6ee2 083e 548a e43e 56bf 213e
000001a0: d67a 19be 0a04 f73d f88a 32be 98e5 52bd
000001b0: d1b0 283d 6d62 b6bd 87db 143d 9cd8 8e3e
000001c0: 4e46 723e 38c0 c93e 1459 03bf 9718 f5bc
000001d0: cd3a 8f3e 9fbd cf3d 98c7 57bd a705 98be
000001e0: 7926 833d de09 263e 8535 87bd 2b55 373e
000001f0: 15d5 5c3e 11c5 dcbd 9961 96be c485 bebe
00000200: e716 0a3d dab9 e7bf ad35 98be 22b8 b9be
00000210: d18f a23e 19c2 233b b683 8c3d 1670 3ebd
00000220: fbdb 8dbe 168f 11be 71fc a2bd 925f 813e
00000230: 76f1 6fbc 40da 8abf ce0c e6bd 0fe3 2cbc
00000240: 2f29 8dbe d5a7 8e3d 00d0 cd3f 931f 9e3e
00000250: b2f9 193e fc45 333e d183 9bbd 6718 013e
00000260: db9d 053e a4c1 2dbe 6ac0 1ebc b716 ac3d
00000270: 598e a1be e731 a03e 9450 e93d 2d03 943e
00000280: 84a7 843e 0e45 b4bc 26c2 043d e4e9 2ebe
00000290: 0d71 3f3e a43d a2bd b1d0 89be 7b80 b5be
000002a0: 0159 babd d8af ecbe b73b 053f 55ff f93d
000002b0: 05e6 4a3d 23c9 43be f87a 593d 08b6 6ebe
000002c0: e210 e2bd d5bf 693d 3b0d a33d e473 93bf
000002d0: e59d 4c3b ab9d 5d3e f45e 9bbd e35d 99be
000002e0: 60fb 28bf 5251 0bbd c9e8 93bd 9512 8ebd
000002f0: a806 103e fc3c 033e fd72 f23b ea6e acbd
00000300: 9eac 3e3e 8a36 6d3d 5707 6b3e ae06 103e
00000310: 07c6 99be 593b 99be e3aa b03d b381 573e
00000320: 749e bebe 93cd 08bf e4b4 ddbe b809 78be
00000330: 2bcf 9abe b7db 943d 3021 1c3e 176f f5be
00000340: c060 79bb 0c5b 05be 4167 04bd 6153 d5be
00000350: 401e 05bd a478 2fbf 1850 a1bd 569d c0bd
00000360: d9fc 793e 4814 7dbe e7f9 debd b986 56be
00000370: 468b 31be 450f 06be 4a66 cebd 3b09 0c3e
00000380: 677d 3e3c bcf1 fb3d 933f b9be 8a35 563d
00000390: 97bf b73e 7b84 7dbf 4001 923e dde2 e23d
000003a0: dcb0 103e f45c 94bc cc9e 1cbe 9fdf ebbe
000003b0: 69b5 4abe 2185 843e 33d8 773e 075a de3e
000003c0: 6c01 1ebc 8862 5ebe 6e3f d63d 0da0 353e
000003d0: 5c10 62bf deaf 0d3f 36c6 883f 821e 14bf
000003e0: 91a2 95be a68a 8a3e dacd 4ebf 97be b33e
000003f0: cb10 44bc 1eec 7d3e 7bc5 063e 6e55 19be
-0.09782096 -0.21627146 0.073678486 -0.16394505 0.12643863 0.006402031 0.13498709 0.12653436
0.16991545 0.112520956 -0.21183015 0.09618627 0.007229324 -0.070824206 -0.10490328 0.1251489
-0.11997899 0.10118993 -0.13280407 -0.026138825 0.048323832 -0.098290004 0.1221584 0.115441255
-0.08710797 -0.14529887 -0.113758236 -0.09176901 -0.055011943 0.17268384 0.010094561 0.17999019
0.03547149 -0.1764748 -0.006721863 -0.0024734645 -0.13538122 -0.13637197 0.09695706 -0.15945375
0.11637439 -0.13557538 -0.041844387 -0.20152418 0.06818828 -0.19197364 0.12452059 0.08868134
0.10313693 0.08535335 0.043635923 -0.10604073 -0.1725504 -0.031011946 -0.028698307 -0.085220836
-0.17426544 0.08677677 -0.11289859 0.19487348 -0.15942715 -0.06681476 -0.14872128 -0.05843374
-0.026573462 -0.048536956 -0.0010362898 -0.14984415 0.07869949 -0.024035858 -0.012351036 -0.06828804
0.02288639 -0.048497535 -0.17131892 -0.16389027 0.096509404 0.036866583 -0.05355298 0.025953576
-0.09582385 -0.11579403 0.08889725 0.08241114 -0.004678165 -0.027317699 0.089316815 0.021473248
0.03739315 0.00026692954 0.12074666 -0.09509218 -0.120804764 0.030468803 -0.19715868 0.12538218
-0.17172316 0.18483083 -0.2002842 0.031942166 0.061948482 0.13367626 0.44636786 0.15795645
-0.14988264 0.12061317 -0.17435825 -0.05148849 0.04118425 -0.08905492 0.03634217 0.27899635
0.23659632 0.39404464 -0.513078 -0.029918952 0.2797455 0.10143589 -0.05268058 -0.29691812
0.064038225 0.16214702 -0.06602005 0.17903583 0.2156566 -0.10779775 -0.29371336 -0.3721143
0.033713248 -1.8103592 -0.2972845 -0.36273295 0.31750348 0.0024987517 0.06861059 -0.046493612
-0.27706894 -0.14214739 -0.079583056 0.25268227 -0.014644971 -1.0847855 -0.11232911 -0.010552182
-0.27570483 0.06965605 1.6079102 0.30883464 0.15036657 0.17507166 -0.07593501 0.12606965
0.13048498 -0.169684 -0.00968943 0.0840277 -0.31553915 0.31288072 0.11392322 0.28908673
0.25909054 -0.022005584 0.032411717 -0.1708141 0.18695469 -0.07921913 -0.2691703 -0.35449585
-0.090990074 -0.46227908 0.5204424 0.12206904 0.04953577 -0.19119696 0.053095788 -0.23311627
-0.110383764 0.05706771 0.07961508 -1.1519742 0.0031222042 0.21642177 -0.0758647 -0.29954442
-0.6600857 -0.0340131 -0.072221346 -0.06937138 0.14065039 0.12816232 0.0073989616 -0.08419593
0.18620536 0.05791334 0.22952019 0.14065048 -0.30033895 -0.2992809 0.08626344 0.2104557
-0.37230265 -0.5343868 -0.4330207 -0.24222457 -0.30236182 0.0726847 0.15247035 -0.47936317
-0.0038052052 -0.13023013 -0.032325033 -0.41665176 -0.03249955 -0.6854346 -0.07876605 -0.094050094
0.2441286 -0.24714768 -0.10887509 -0.2094983 -0.17338285 -0.13091762 -0.10078104 0.13675396
0.011626578 0.123019665 -0.36181316 0.052297153 0.3588836 -0.99030274 0.2851658 0.11078427
0.14129966 -0.01811073 -0.15294951 -0.46069047 -0.19795765 0.2588282 0.24203567 0.4342806
-0.009643894 -0.21717274 0.10461317 0.17736836 -0.8830621 0.5534648 1.0685489 -0.5785905
-0.2922559 0.27058905 -0.80782855 0.35106346 -0.011966894 0.24797103 0.1316127 -0.14973995

sequential/dense_1/BiasAdd/ReadVariableOp f4 [50]
00000000: 331d aabc be3d 78bb 7e87 86ba 9238 05be
00000010: 11fb 29bd ec7b 83bb 8b4d 8f3d 8028 1b3d
00000020: 2b4b 7d3d 7bee cc3d f057 083d cf02 2b3c
00000030: 185e 453d 61c0 6ebd 1815 c83d 7822 3d3d
00000040: 30a6 ccbd 079e 61bd 1ee6 823c 8fd5 a03d
00000050: 9b41 ebbc 51de 6dbd 733d 0bbe 0c04 f03d
00000060: 9b39 a7bd 2889 e23b 52d7 f6bc 3a39 bfbc
00000070: 92b4 babd a46c fd3c d875 75bc 9e45 71bc
00000080: 5d4c 603d 9c46 263d 292b c93d ce70 c13d
00000090: 2719 c33d 8ad8 523d 422c 7cbd 3e84 7ebd
000000a0: c5bb 02be 2dcf b9bd b10f 9f3d c752 88bd
000000b0: a86b 0f3e 609d 64bd b7ef ef3c e6af aabd
000000c0: f23c a03a 8b4b edbd
-0.020765876 -0.0037878598 -0.0010263768 -0.13009861 -0.0414992 -0.0040125754 0.06997212 0.03788042
0.061839264 0.10006424 0.03328699 0.010437681 0.048185438 -0.058288936 0.09769648 0.04617545
-0.09992635 -0.055082347 0.015978869 0.07853233 -0.028717807 -0.058073346 -0.1359766 0.11719522
-0.08165284 0.006913323 -0.03013197 -0.023342717 -0.09116472 0.030935593 -0.014981709 -0.014726071
0.054760326 0.040594682 0.09822685 0.09445344 0.09526282 0.05147604 -0.061565645 -0.062137835
-0.12766941 -0.09072719 0.07766665 -0.066564135 0.14005911 -0.055814147 0.02928911 -0.08334331
0.0012225194 -0.11586674

sequential/dense_2/BiasAdd/ReadVariableOp f4 [12]
00000000: 5da4 133d ac60 dc3b 9c1b d83d 15ce 1a3e
00000010: c5d7 4cbd 6e8d 00be 59f7 073e 3a70 383d
00000020: 734b 51bc 0196 c7bb da22 563d db4b 0c3e
0.03604542 0.0067253914 0.10552141 0.15117677 -0.05001046 -0.12553951 0.1327795 0.045028903
-0.012774336 -0.00609088 0.05227933 0.13700812

sequential/dense_3/BiasAdd/ReadVariableOp f4 [10]
00000000: 8555 4d3e 71dd 4d3d 6605 453d 8e5a 8d3d
00000010: 8bad c53d 9628 983d 0000 0000 dc6f 483e
00000020: c14a 903d 4f0e e23d
0.20052154 0.05026001 0.04810085 0.069020376 0.09652241 0.07429616 0.0 0.19573921
0.07045508 0.110378854

sequential/dense/BiasAdd/ReadVariableOp f4 [100]
00000000: 9640 953d fadb 993d afbc 5e3c e36e a43d
00000010: 93b4 fdbd b489 cd3c e98f 83be f4c8 2f3e
00000020: 6a4a 84bd 7c70 d6bd 0e76 db3d 0796 133e
00000030: 533e ee3c ae2f 153d 2258 47be ab5e c6bc
00000040: 07aa 15be 2454 91bd 0000 0000 1a52 08be
00000050: 7050 2b3d 092a 863d 9161 39bd d377 26bd
00000060: 0997 f1bd bf34 f2bd e140 10be 5434 edbd
00000070: 3adb 863d e725 c03d 97cd 03be 03bb 433d
00000080: 5094 863d 5f1c 213b 9300 ef3d 6a8c ed3d
00000090: 9683 213d 3968 253e 74db 17bc 7aff 3a3c
000000a0: 2f26 47be 373d ca3d dc26 e3bc d5fa 2abc
000000b0: 0850 673c 82cb c63d 75f7 173e 473b 59be
000000c0: af98 283e dc21 bc3c a164 3dbd 7941 583c
000000d0: 35ed adbb ae16 6f3d 69ac 82bb 688b b13c
000000e0: b392 09be f122 173d a109 c9bd bff8 1b3d
000000f0: 9fd0 193d 169a 42bc cea2 1dbc cf53 2bbe
00000100: 6a4b 18bd b9b0 403e 1622 fa3d 2453 48bd
00000110: 7a23 b4bd 92e0 11be 66fd 8c3d 7970 08be
00000120: 9267 18be c8a8 1bbc a2b0 15bd dfa3 b8bc
00000130: cfef 813d 817d 12be 1b60 1d3e 7385 533d
00000140: 85cf 0b3e 3950 d3bd 5f21 1abe 8e8d 6d3d
00000150: e28d 8b3c 86c3 2abe 2a7a d8bc b752 af3b
00000160: 7b37 22bd b989 bd3d aa4a 14bd 9b40 913c
00000170: b03d f2bc 2651 013e e42d d7bd 7ba7 97bd
00000180: 98c8 62bd 81ff 783e 1c65 b8bd 2a9f 113d
0.072877094 0.0751266 0.01359479 0.080289625 -0.123879574 0.025090076 -0.25695732 0.17166501
-0.06459506 -0.104706734 0.107158765 0.144127 0.029082453 0.036422424 -0.19467214 -0.024215063
-0.14615642 -0.07096127 0.0 -0.1331257 0.041824758 0.06550986 -0.045259062 -0.040641617
-0.11796386 -0.11826467 -0.1408725 -0.115822464 0.06584783 0.09382229 -0.12871395 0.04778577
0.06571257 0.002458356 0.116700314 0.115990475 0.03943213 0.16153039 -0.00926863 0.011413449
-0.1944816 0.09874957 -0.02772849 -0.01043578 0.014118202 0.09706785 0.14840491 -0.21214019
0.16464494 0.022965364 -0.046238545 0.013199204 -0.0053078183 0.05837124 -0.003987838 0.02167292
-0.13434868 0.036898557 -0.0981629 0.03807902 0.037552472 -0.011877557 -0.009621335 -0.16731189
-0.037181295 0.18817414 0.122135326 -0.048907414 -0.08795829 -0.14245823 0.068842694 -0.13324155
-0.14883259 -0.00950069 -0.036545403 -0.022539077 0.06344568 -0.14305688 0.15368693 0.05164094
0.13653381 -0.10318036 -0.15051793 0.057996325 0.017035428 -0.16676149 -0.02642544 0.0053504365
-0.03960369 0.09254784 -0.036204018 0.017731002 -0.02957043 0.12628612 -0.105068 -0.07404991
-0.055367082 0.24316217 -0.0900366 0.03555218

sequential/dense/MatMul f4 [100, 12]
00000000: 9ac3 f5bc abfd d73d 1b63 22bf 5e8f 6e3d
00000010: 8daa 89be ff88 03bc e777 d03d b322 203e
00000020: 19af b93d fe69 dc3c 345b e1bd de2d 393e
00000030: ead5 6d3e 859c 0c3e bdcd 2bbf 866d 2abe
00000040: 3ec0 e9be 960f 6e3d 1439 7a3e 5c1c df39
00000050: 9c50 d7bd e532 763e a31c 473e 48ba 333e
00000060: 6fc8 08bf 0221 ebbd 38e0 113d 4dde 763e
00000070: 27ef 1dbe bdf6 17bf c42b acbe 17a2 343e
00000080: 6a23 023f a82a b2bc 33ee a53d 95fc 0d3e
00000090: 9c7e 14be dc76 b23d c25c c43d 3410 10bd
000000a0: c280 d5bd 0c63 97be 1a96 183e 79d8 43bd
000000b0: 4a71 cdbd ad74 893e e958 683e 5b1f 303e
000000c0: bba3 bfbe d0a2 d2bd bf09 d33e d09d 713b
000000d0: ae0b 5b3e 3a32 3bbe 8221 5c3e 5f11 08bd
000000e0: 14ba 843e 2e92 423d 2515 f73c e48c 06be
000000f0: a576 613e 667f 993e d194 3cbf d374 793e
00000100: c2a2 d03d 25a1 babe d8ca 4abd f426 f33d
00000110: 5f67 1c3e 54b4 9c3c 6375 69be 868f 263e
00000120: b5f9 633e 5e21 debc 3234 a03e fdee a13e
00000130: d9f3 88be 08ee 0b3e be8c 043d 5b84 12bd
00000140: e76b 81bd 988e 96bd 6178 25bd 056d a4bd
00000150: 0600 1f3d 1c83 7d3d 74f5 02bf 9a82 d5bd
00000160: f92c 03be db13 883d 0224 5dbd c929 52be
00000170: 09f2 9fbd b809 b73e cc67 26be 450b bb3d
00000180: f15c 18bc 4c6a 4ebe 0e5f 413b 3584 1dbe
00000190: 5c7b 5fbe 5aa1 0c3e ca04 9ebd f740 65be
000001a0: 9769 64bd c357 d8bc 1dc8 4fbe ea6f 1cbe
000001b0: bbd3 75bd 74f3 33be e5b6 be3d 88c7 84bd
000001c0: 5f91 bc3c df10 0fbd 3242 2dbe 18eb 48be
000001d0: 5e28 44be ead8 e73c c354 22be 0257 f73d
000001e0: 7e4c adbe 5ae9 2a3e 2860 97be fd0b a4be
000001f0: 8cb2 5cbe c8c8 14bd 6606 373d 6642 5f3e
00000200: b8ec 873e 3e7e 5d3e 10e6 943e 9706 31bd
00000210: edf4 833e e530 02be cc20 09bf 3a71 44be
00000220: 8df2 85bf f986 e8bd 3c82 0e3d 58bb 223e
00000230: 3e9d a2bd df13 163e d713 143e ac5a 643e
00000240: 6e8e 1f3e e556 ef3d 40bb 13bf 757a 603e
00000250: bc27 7c3e ea67 7cbe 74c5 473d 7b53 63bd
00000260: 0695 53bc f58b 9d3d 1218 62bd c23c 0f3c
00000270: 7521 4dbd 1e3d 703e 6375 a43e 8782 31be
00000280: 1953 27bf 87b6 29bf c6f1 9a3e 6352 1abe
00000290: c93b 3bbe 4b68 18be 0898 ccbe e6a1 063e
000002a0: bc1b fe3b 2e8a 963d e4f0 5b3d 6458 003f
000002b0: 7026 99bd 330b 1b3f c527 9bbe 4724 a9be
000002c0: 9d34 8cbd 7418 723d 89ee bfbd 0a9e a13d
000002d0: 7fae 113c a69d 3d3e b4f0 3fbe c006 483e
000002e0: 0a14 db3d 8e02 ea3b 3b14 14bd 4cfd 8c3e
000002f0: d5e7 d9be 76b1 663e f3d1 37bd ceae 203c
00000300: a282 963e 9865 25be 8f7c 1b3f 7cd5 aa3d
00000310: c921 f83d 8a8a a3be 5e2a 86be a569 51be
00000320: 24d2 6c3e d602 8a3d 774b cbbd 239f 1dbd
00000330: 6cd9 15be 4b0f c83b 574b 0ebf 7ea3 7d3e
00000340: 9148 b1bd 6613 ce3e d792 6d3e 7e31 bdbe
00000350: a97b 893e e35f 1abe 2e39 8d3e 3279 a03c
00000360: 886f b0bc 0002 703d fcce 093e 694b 42be
00000370: a40f 9dbd 50e9 633d 286d 4a3d 5d6c 13be
00000380: d1b2 24be 3ea3 31be 6515 04be a5bb 48be
00000390: d626 8e3e 02a6 4fbc 6a98 03be dca4 37be
000003a0: 439e 7f3e 7ab8 2f3f 48c2 5abd c2f2 b3bd
000003b0: 8c47 f9bd c7fb 253e 0167 30be 98ae c83d
000003c0: 0eb7 c9be 53f8 cdbd 0936 cc3d d7d8 bebe
000003d0: b26d 803d 40a9 0bbf ee87 7d3e 1e08 ba3e
000003e0: b4d2 4fbe ebed eebd c948 983e 3aff 163d
000003f0: ece7 ec3d 4634 083e 0efb ea3e 1dac 71be
-0.030000497 0.1054643 -0.6343247 0.058242194 -0.26887932 -0.008028268 0.101791196 0.15638237
0.090666 0.02690601 -0.11003724 0.18083903 0.23226133 0.13731582 -0.67110807 -0.16643342
-0.45654482 0.058120333 0.24435836 0.00042555004 -0.10513422 0.24042852 0.19444518 0.1755153
-0.5343084 -0.11480905 0.035614222 0.24108239 -0.1542326 -0.5936087 -0.3362714 0.17639957
0.5083529 -0.021748856 0.081020735 0.13865884 -0.14501423 0.08714077 0.09588005 -0.035171703
-0.10424949 -0.29567754 0.14901009 -0.047813866 -0.10031374 0.2684683 0.22690167 0.17199461
-0.37429604 -0.1028496 0.41218373 0.0036867745 0.21391174 -0.18280879 0.21497157 -0.03321969
0.25923216 0.04750269 0.03016145 -0.13139683 0.22017916 0.2998001 -0.73664576 0.24360971
0.101872936 -0.3645107 -0.049509853 0.11872664 0.15273808 0.019128956 -0.22798686 0.16265687
0.22263224 -0.02711552 0.31289822 0.31627646 -0.2674854 0.1366502 0.032360785 -0.035770755
-0.06319409 -0.07351416 -0.040398005 -0.08028606 0.03881838 0.061892614 -0.5115578 -0.10425301
-0.12810124 0.06644412 -0.053989418 -0.20523752 -0.078098364 0.35749602 -0.16250533 0.09133009
-0.009299503 -0.20157737 0.002950612 -0.15382464 -0.21824402 0.13733426 -0.07715757 -0.22388063
-0.05576476 -0.026409036 -0.20291181 -0.15277067 -0.060016375 -0.17573339 0.09312228 -0.0648337
0.023018537 -0.0349282 -0.16919783 -0.19620931 -0.19156024 0.028301675 -0.15852647 0.12077142
-0.3384742 0.16690579 -0.2956555 -0.32040396 -0.21552485 -0.036324292 0.044683836 0.21802673
0.2654779 0.21630189 0.29081774 -0.043219175 0.257728 -0.12713964 -0.5356567 -0.19183818
-1.0464646 -0.11353869 0.03479217 0.15891778 -0.07940148 0.14656018 0.14460693 0.22300214
0.15581676 0.11686496 -0.57707596 0.21921714 0.24624532 -0.24649015 0.04877229 -0.055499535
-0.012913948 0.0769271 -0.055198736 0.008742513 -0.050080735 0.23460814 0.3212081 -0.17334948
-0.6536117 -0.6629414 0.30262583 -0.1507049 -0.18284525 -0.14883535 -0.3995974 0.13147697
0.007754771 0.073505744 0.053696528 0.50134873 -0.074780345 0.60563964 -0.3030378 -0.3303549
-0.06845973 0.05910535 -0.09371669 0.07891472 0.008891701 0.1851717 -0.18744165 0.19533825
0.106971815 0.007141418 -0.036152106 0.27537 -0.42559686 0.22528633 -0.044877958 0.009807302
0.2939654 -0.16152036 0.60736936 0.083415 0.12115819 -0.31941634 -0.262042 -0.20450456
0.23127037 0.06738822 -0.09926503 -0.038481843 -0.14633721 0.0061053387 -0.5558371 0.24769399
-0.08656419 0.40249175 0.23200546 -0.36951822 0.26852158 -0.1507564 0.27582687 0.01958904
-0.021537557 0.058595657 0.13457865 -0.18974079 -0.07668999 0.055642426 0.049420506 -0.14396806
-0.16083838 -0.17347428 -0.12898786 -0.1960283 0.27764004 -0.012673857 -0.1285111 -0.17933983
0.24962716 0.68640864 -0.053407937 -0.08786537 -0.121718496 0.16209327 -0.17226793 0.09798926
-0.39397472 -0.1005713 0.09971244 -0.3727481 0.06270923 -0.5455513 0.24758884 0.36334318
-0.2029522 -0.11666473 0.2974303 0.036864497 0.11567673 0.1330119 0.45894665 -0.23600812
