quantanization/tflite_quant_model.tflite (tflite, 14432 bytes, 9 tensors)

arith.constant f4 [100]
0	0x3d954096	0.072877094
1	0x3d99dbfa	0.0751266
2	0x3c5ebcaf	0.01359479
3	0x3da46ee3	0.080289625
4	0xbdfdb493	-0.123879574
5	0x3ccd89b4	0.025090076
6	0xbe838fe9	-0.25695732
7	0x3e2fc8f4	0.17166501
8	0xbd844a6a	-0.06459506
9	0xbdd6707c	-0.104706734
10	0x3ddb760e	0.107158765
11	0x3e139607	0.144127
12	0x3cee3e53	0.029082453
13	0x3d152fae	0.036422424
14	0xbe475822	-0.19467214
15	0xbcc65eab	-0.024215063
16	0xbe15aa07	-0.14615642
17	0xbd915424	-0.07096127
18	0x00000000	0.0
19	0xbe08521a	-0.1331257
20	0x3d2b5070	0.041824758
21	0x3d862a09	0.06550986
22	0xbd396191	-0.045259062
23	0xbd2677d3	-0.040641617
24	0xbdf19709	-0.11796386
25	0xbdf234bf	-0.11826467
26	0xbe1040e1	-0.1408725
27	0xbded3454	-0.115822464
28	0x3d86db3a	0.06584783
29	0x3dc025e7	0.09382229
30	0xbe03cd97	-0.12871395
31	0x3d43bb03	0.04778577
32	0x3d869450	0.06571257
33	0x3b211c5f	0.002458356
34	0x3def0093	0.116700314
35	0x3ded8c6a	0.115990475
36	0x3d218396	0.03943213
37	0x3e256839	0.16153039
38	0xbc17db74	-0.00926863
39	0x3c3aff7a	0.011413449
40	0xbe47262f	-0.1944816
41	0x3dca3d37	0.09874957
42	0xbce326dc	-0.02772849
43	0xbc2afad5	-0.01043578
44	0x3c675008	0.014118202
45	0x3dc6cb82	0.09706785
46	0x3e17f775	0.14840491
47	0xbe593b47	-0.21214019
48	0x3e2898af	0.16464494
49	0x3cbc21dc	0.022965364
50	0xbd3d64a1	-0.046238545
51	0x3c584179	0.013199204
52	0xbbaded35	-0.0053078183
53	0x3d6f16ae	0.05837124
54	0xbb82ac69	-0.003987838
55	0x3cb18b68	0.02167292
56	0xbe0992b3	-0.13434868
57	0x3d1722f1	0.036898557
58	0xbdc909a1	-0.0981629
59	0x3d1bf8bf	0.03807902
60	0x3d19d09f	0.037552472
61	0xbc429a16	-0.011877557
62	0xbc1da2ce	-0.009621335
63	0xbe2b53cf	-0.16731189
64	0xbd184b6a	-0.037181295
65	0x3e40b0b9	0.18817414
66	0x3dfa2216	0.122135326
67	0xbd485324	-0.048907414
68	0xbdb4237a	-0.08795829
69	0xbe11e092	-0.14245823
70	0x3d8cfd66	0.068842694
71	0xbe087079	-0.13324155
72	0xbe186792	-0.14883259
73	0xbc1ba8c8	-0.00950069
74	0xbd15b0a2	-0.036545403
75	0xbcb8a3df	-0.022539077
76	0x3d81efcf	0.06344568
77	0xbe127d81	-0.14305688
78	0x3e1d601b	0.15368693
79	0x3d538573	0.05164094
80	0x3e0bcf85	0.13653381
81	0xbdd35039	-0.10318036
82	0xbe1a215f	-0.15051793
83	0x3d6d8d8e	0.057996325
84	0x3c8b8de2	0.017035428
85	0xbe2ac386	-0.16676149
86	0xbcd87a2a	-0.02642544
87	0x3baf52b7	0.0053504365
88	0xbd22377b	-0.03960369
89	0x3dbd89b9	0.09254784
90	0xbd144aaa	-0.036204018
91	0x3c91409b	0.017731002
92	0xbcf23db0	-0.02957043
93	0x3e015126	0.12628612
94	0xbdd72de4	-0.105068
95	0xbd97a77b	-0.07404991
96	0xbd62c898	-0.055367082
97	0x3e78ff81	0.24316217
98	0xbdb8651c	-0.0900366
99	0x3d119f2a	0.03555218

arith.constant2 f4 [10]
0	0x3e4d5585	0.20052154
1	0x3d4ddd71	0.05026001
2	0x3d450566	0.04810085
3	0x3d8d5a8e	0.069020376
4	0x3dc5ad8b	0.09652241
5	0x3d982896	0.07429616
6	0x00000000	0.0
7	0x3e486fdc	0.19573921
8	0x3d904ac1	0.07045508
9	0x3de20e4f	0.110378854

arith.constant3 f4 [12]
0	0x3d13a45d	0.03604542
1	0x3bdc60ac	0.0067253914
2	0x3dd81b9c	0.10552141
3	0x3e1ace15	0.15117677
4	0xbd4cd7c5	-0.05001046
5	0xbe008d6e	-0.12553951
6	0x3e07f759	0.1327795
7	0x3d38703a	0.045028903
8	0xbc514b73	-0.012774336
9	0xbbc79601	-0.00609088
10	0x3d5622da	0.05227933
11	0x3e0c4bdb	0.13700812

arith.constant4 f4 [50]
0	0xbcaa1d33	-0.020765876
1	0xbb783dbe	-0.0037878598
2	0xba86877e	-0.0010263768
3	0xbe053892	-0.13009861
4	0xbd29fb11	-0.0414992
5	0xbb837bec	-0.0040125754
6	0x3d8f4d8b	0.06997212
7	0x3d1b2880	0.03788042
8	0x3d7d4b2b	0.061839264
9	0x3dccee7b	0.10006424
10	0x3d0857f0	0.03328699
11	0x3c2b02cf	0.010437681
12	0x3d455e18	0.048185438
13	0xbd6ec061	-0.058288936
14	0x3dc81518	0.09769648
15	0x3d3d2278	0.04617545
16	0xbdcca630	-0.09992635
17	0xbd619e07	-0.055082347
18	0x3c82e61e	0.015978869
19	0x3da0d58f	0.07853233
20	0xbceb419b	-0.028717807
21	0xbd6dde51	-0.058073346
22	0xbe0b3d73	-0.1359766
23	0x3df0040c	0.11719522
24	0xbda7399b	-0.08165284
25	0x3be28928	0.006913323
26	0xbcf6d752	-0.03013197
27	0xbcbf393a	-0.023342717
28	0xbdbab492	-0.09116472
29	0x3cfd6ca4	0.030935593
30	0xbc7575d8	-0.014981709
31	0xbc71459e	-0.014726071
32	0x3d604c5d	0.054760326
33	0x3d26469c	0.040594682
34	0x3dc92b29	0.09822685
35	0x3dc170ce	0.09445344
36	0x3dc31927	0.09526282
37	0x3d52d88a	0.05147604
38	0xbd7c2c42	-0.061565645
39	0xbd7e843e	-0.062137835
40	0xbe02bbc5	-0.12766941
41	0xbdb9cf2d	-0.09072719
42	0x3d9f0fb1	0.07766665
43	0xbd8852c7	-0.066564135
44	0x3e0f6ba8	0.14005911
45	0xbd649d60	-0.055814147
46	0x3cefefb7	0.02928911
47	0xbdaaafe6	-0.08334331
48	0x3aa03cf2	0.0012225194
49	0xbded4b8b	-0.11586674

arith.constant5 f4 [1, 10]
0	0x3f65f341	0.898243
1	0x3fb5c2e1	1.4200097
2	0x3f4fc458	0.8115897
3	0xbeaf5240	-0.3424244
4	0xbf7081b5	-0.9394792
5	0x3f5a63cd	0.85308534
6	0x3e6cb424	0.23115593
7	0xbfc3d36c	-1.5298896
8	0x3f21c050	0.6318407
9	0xbf54e2b4	-0.8315842

arith.constant6 f4 [10, 12]
0	0x3ef4709f	0.47742173
1	0x3ed388d1	0.4131532
2	0xbbf348bb	-0.0074244416
3	0xbe7c7dad	-0.24657317
4	0xba931b82	-0.0011223408
5	0xbdfd60e9	-0.12372
6	0xbeb80180	-0.35938644
7	0xbe52bd3e	-0.20580003
8	0x3f93aa6b	1.1536382
9	0x3fc52259	1.5401107
10	0x3e7348ef	0.2375829
11	0xbeac08fd	-0.33600608
12	0x3f1366f7	0.57578987
13	0xbdf39394	-0.11893383
14	0xbf16077b	-0.58605164
15	0xbe91b41b	-0.28457722
16	0x3f09a364	0.5376494
17	0x3ef58aed	0.47957554
18	0x3df356be	0.11881779
19	0x3e5c901a	0.21539345
20	0x3f463dbf	0.7743797
21	0x3f94dd23	1.1629986
22	0x3f1aa1d6	0.6040319
23	0x3f2ba001	0.6704102
24	0x3f182304	0.5942843
25	0x3f2a738d	0.66582566
26	0xbdac1c13	-0.08403792
27	0x3f077ef3	0.52928084
28	0xbf3eb7eb	-0.74499387
29	0xbf0a6b2b	-0.54069775
30	0xbe821b03	-0.25411233
31	0xbf062954	-0.5240681
32	0x3f94e20c	1.1631484
33	0x3f520aa3	0.8204748
34	0xbf7410a1	-0.95337874
35	0xbf32fbf5	-0.69915706
36	0xbe72ae0b	-0.23699205
37	0xbdc593f6	-0.09647362
38	0x3f1823d1	0.5942965
39	0x3e3655d1	0.17806174
40	0x3f66ddba	0.9018208
41	0x3e382f9d	0.17986913
42	0x3f29cabf	0.6632499
43	0x3e41d60a	0.18929306
44	0xbf0baf4e	-0.5456437
45	0xbf6f88f1	-0.9356833
46	0x3e462fff	0.19354247
47	0x3e499079	0.19684018
48	0xbda86a14	-0.08223358
49	0xbe660c7d	-0.22465701
50	0x3efc6114	0.49292815
51	0x3e8d6f69	0.27624062
52	0x3f5230a3	0.82105464
53	0xbe775b1a	-0.24155846
54	0x3f0eeeef	0.55833334
55	0xbe51c6ba	-0.20485964
56	0xbf31c79a	-0.6944519
57	0xbf8ad62f	-1.0846614
58	0xbe5b0d1c	-0.2139172
59	0x3d4cce70	0.05000156
60	0x3ea136db	0.31487164
61	0x3e89f917	0.26947853
62	0x3e2960ba	0.16540805
63	0x3ef7a69d	0.48369303
64	0xbf45beab	-0.7724406
65	0x3e845626	0.25846976
66	0xbecbce6c	-0.39805925
67	0xbf1b1c97	-0.605905
68	0x3f12cdad	0.57345086
69	0x3fb61073	1.422377
70	0xbebadada	-0.36495095
71	0xbf8de394	-1.1085076
72	0x3ea0b2f8	0.31386542
73	0xbdfd567c	-0.12370011
74	0xbe18eb3c	-0.14933485
75	0xbf03f252	-0.51541626
76	0xbeba4230	-0.36378622
77	0x3eb9055e	0.36136907
78	0xbe411be8	-0.18858302
79	0xbcd01980	-0.025402784
80	0xbbc69580	-0.0060603023
81	0xbe67f2bc	-0.2265119
82	0xbe25393e	-0.16135117
83	0xbf0144dc	-0.50495696
84	0xbe8e00dd	-0.27735034
85	0xbf59984b	-0.84998006
86	0x3f648a38	0.89273405
87	0xbe3e9182	-0.18610194
88	0x3f260a1d	0.6485918
89	0x3e61cf47	0.22051726
90	0xbeb292e4	-0.34877694
91	0xbf9e5eff	-1.237274
92	0xbed6e983	-0.4197503
93	0xbe68646f	-0.22694562
94	0x3ef39a11	0.4757848
95	0x3e8fd413	0.28091487
96	0x3f28300a	0.656983
97	0xbe838752	-0.2568918
98	0xbe909f33	-0.2824646
99	0x3ef6123c	0.48060787
100	0xbf30290f	-0.6881265
101	0xbe149e41	-0.14513494
102	0xbee7b572	-0.4525562
103	0x3e908952	0.28229767
104	0x3f626f36	0.88450944
105	0x3f7dc5e6	0.99130094
106	0x3ad001c7	0.001586967
107	0x3e10fb33	0.14158325
108	0xbf1b267d	-0.60605603
109	0xbd2e0158	-0.04248175
110	0x3edf6061	0.4362822
111	0x3f0fc528	0.5616021
112	0x3f6f5d86	0.9350208
113	0xbe498300	-0.19678879
114	0xbdb32208	-0.08746725
115	0xbdab6e74	-0.08370677
116	0xbf3e8ca6	-0.7443336
117	0xbf6231ae	-0.88357055
118	0x3edcee1d	0.43150416
119	0x3f15c276	0.5849985

arith.constant7 f4 [12, 50]
0	0xbe637b96	-0.22215113
1	0x3ebb6d98	0.3660705
2	0x3f1c32fa	0.61015284
3	0xbf1cdb71	-0.6127234
4	0x3f3611a7	0.71120685
5	0xbf160cb8	-0.5861316
6	0x3d847232	0.064670935
7	0x3da56d22	0.08077456
8	0xbd88a55c	-0.06672165
9	0x3e6b7235	0.22992785
10	0x3def6ddb	0.11690875
11	0x3e60bd7f	0.21947287
12	0x3ed6b7ef	0.41937205
13	0xbc796c35	-0.0152235525
14	0xbdeb6c96	-0.114953205
15	0xbe7f6bdf	-0.24943493
16	0x3f5d3de3	0.86422557
17	0xbd8cd967	-0.06877404
18	0x3e5339b9	0.20627488
19	0x3e633722	0.22189
20	0x3e8532c0	0.26015282
21	0x3db66370	0.08905685
22	0x3f15bc38	0.58490324
23	0xbd858532	-0.065195456
24	0x3d9b8bc6	0.07595019
25	0x3e311f22	0.17297032
26	0xbe9106c4	-0.28325474
27	0x3ea9ea9b	0.33186802
28	0x3ecbc1ab	0.39796194
29	0xbd1f7309	-0.038928065
30	0x3f017be7	0.50579685
31	0x3f4fd874	0.81189656
32	0xbe2c1b5e	-0.16807315
33	0xbec8866e	-0.39165062
34	0x3de83b4f	0.11339437
35	0xbddca6f3	-0.107740305
36	0xbde04acd	-0.10951767
37	0xbe2c87b5	-0.16848643
38	0x3ccd8756	0.025088947
39	0xbe325fc9	-0.17419352
40	0xbeeb3411	-0.4593816
41	0xbed51296	-0.41615742
42	0x3c705436	0.014668515
43	0x3e5ec54c	0.2175495
44	0x3e94a624	0.29033005
45	0xbde5a12e	-0.11212383
46	0x3eb4dc89	0.35324505
47	0x3e18fe09	0.14940657
48	0x3e2e00ba	0.16992465
49	0xbe9b59d6	-0.30341977
50	0xbdbd43ac	-0.09241423
51	0x3e0fa234	0.1402672
52	0x3daf4851	0.08558715
53	0xbe940706	-0.28911608
54	0x3ec4dd89	0.38450268
55	0xbf2b006b	-0.6679751
56	0x3e6922d6	0.22767195
57	0xbdbec3ef	-0.09314715
58	0xbf08b8a5	-0.53406745
59	0x3e83228a	0.2561229
60	0x3e831948	0.25605226
61	0xbd0870ca	-0.03331069
62	0x3d94f35e	0.07272981
63	0x3c4e1275	0.012577643
64	0xbecc901a	-0.3995369
65	0x3e40be3c	0.18822569
66	0x3f445817	0.76696914
67	0xbe07e9d2	-0.13272789
68	0x3ed55d4d	0.41672745
69	0x3d3178db	0.043328147
70	0xbe0d789b	-0.13815539
71	0x3e6097db	0.21932928
72	0x3f197e69	0.5995851
73	0x3ea3413d	0.3188571
74	0xbb8da02b	-0.004322072
75	0x3e036243	0.12830453
76	0xbe290545	-0.16505916
77	0x3e28da84	0.16489607
78	0x3cb88a6b	0.02252694
79	0xbe46ad06	-0.1940194
80	0x3c16e0e0	0.009208888
81	0x3ec0a19f	0.37623307
82	0x3ed1fa2e	0.41011184
83	0xbdc4f302	-0.096166626
84	0x3e897175	0.26844373
85	0xbe09849a	-0.1342949
86	0xbe676cce	-0.226001
87	0xbe3839e6	-0.17990837
88	0xbe4c148c	-0.19929713
89	0x3e78e27f	0.24305151
90	0x3d9f7811	0.07786573
91	0xbf8a0c09	-1.0784923
92	0x3c1a8a70	0.00943242
93	0x3da4afc3	0.080413364
94	0x3edb87b8	0.42876983
95	0xbeac03d4	-0.3359667
96	0x3e9c7ee7	0.3056557
97	0x3ecd1fdb	0.40063366
98	0x3e190ae1	0.14945556
99	0xbf2d2c71	-0.6764594
100	0xbe2a212f	-0.16614221
101	0xbe545037	-0.20733725
102	0xbf3efb39	-0.74602085
103	0x3f4eb7ef	0.8074941
104	0xbf12cf7b	-0.5734784
105	0x3dac96e8	0.084272206
106	0xbceff309	-0.029290693
107	0x3e70d3bf	0.23518275
108	0x3e9437f6	0.28948945
109	0x3e47f5c8	0.19527352
110	0x3e54e96f	0.20792173
111	0x3f00f5a5	0.50374824
112	0xbf1184f3	-0.5684349
113	0xbe1393a1	-0.14411785
114	0xbd64214b	-0.055695813
115	0x3d359d82	0.044339664
116	0xbefee7e2	-0.49786288
117	0xbd139c42	-0.03603769
118	0xbeb8b6c9	-0.36076954
119	0x3ed7f48f	0.4217877
120	0x3e39ea09	0.18155684
121	0xbe5abbbe	-0.2136068
122	0xbf357a3c	-0.7088964
123	0x3f063281	0.5242081
124	0xbe0f1d49	-0.13976015
125	0xbdce0588	-0.10059649
126	0x3edae4cd	0.42752686
127	0xbf31af65	-0.69408256
128	0x3c66a94d	0.01407845
129	0x3e55b305	0.20869072
130	0xbec007fe	-0.37506098
131	0xbf03717e	-0.5134505
132	0x3d4b5049	0.049637113
133	0x3c6e5d7a	0.014548654
134	0xbe642e92	-0.2228339
135	0xbe2ee70a	-0.17080322
136	0x3eb39c15	0.3508002
137	0x3ea9ecaf	0.33188388
138	0xbd990992	-0.074725285
139	0x3ddc16b8	0.10746521
140	0x3e6a173a	0.22860423
141	0x3ea7d6da	0.32781106
142	0xbced887f	-0.02899575
143	0x3e217d23	0.15770392
144	0x3ea63ed8	0.3246982
145	0xbdad8e3d	-0.084743954
146	0xbf0b958d	-0.5452507
147	0xbe83b4b6	-0.2572381
148	0x3c924fe3	0.017860359
149	0x3e623d79	0.22093762
150	0xbe000634	-0.12502366
151	0xbdb2bb70	-0.08727157
152	0xbea33b3f	-0.3188114
153	0xbfa32db2	-1.274832
154	0x3f532923	0.82484645
155	0x3e34e1be	0.17664239
156	0x3f296bce	0.6618012
157	0xbcecde43	-0.028914576
158	0xbef274ed	-0.47354832
159	0x3ee6846e	0.4502291
160	0x3f05b752	0.5223285
161	0x3ef5d82e	0.48016495
162	0xbf0d21b5	-0.5512956
163	0xbdf082c4	-0.117436916
164	0x3e4e1367	0.20124589
165	0xbe917676	-0.2841069
166	0x3e7eac36	0.24870381
167	0xbe67a6ff	-0.22622298
168	0xbe89cadc	-0.26912582
169	0x3e44971b	0.19198267
170	0xbe32cc55	-0.17460759
171	0x3e537716	0.20650896
172	0xbc84e993	-0.016224658
173	0x3f201ec6	0.62546957
174	0x3d10f947	0.03539398
175	0xbe1f6a58	-0.1556791
176	0x3f42ab6c	0.7604282
177	0xbefd71a7	-0.49500772
178	0xbeaade10	-0.33372545
179	0x3e631835	0.22177203
180	0x3d287496	0.04112681
181	0xbe7a3943	-0.24435906
182	0x3de33d44	0.1109567
183	0x3df7b3ee	0.12094866
184	0x3ecead07	0.40366384
185	0x3e9b2111	0.30298665
186	0xbe678fde	-0.22613475
187	0x3eae352b	0.3402494
188	0xbe8c47f7	-0.27398655
189	0xbe42f260	-0.19037771
190	0x3df8d472	0.12149896
191	0xbe3ccc77	-0.18437372
192	0x3e4ac02e	0.19799873
193	0x3f083397	0.5320372
194	0x3e6de255	0.2323087
195	0x3dbc4fa8	0.09194881
196	0x3ed22079	0.410404
197	0x3ee0d50e	0.43912548
198	0x3e57f763	0.21090464
199	0xbd9aab39	-0.075521894
200	0x3e4f0a01	0.2021866
201	0x3eb24f3f	0.34826085
202	0xbe6affbf	-0.22949122
203	0x3f48631b	0.7827622
204	0x3e7b7090	0.24554658
205	0xbeebb783	-0.46038446
206	0xbf124b09	-0.57145745
207	0xbdc9ddb3	-0.09856739
208	0x3e917c9a	0.28415376
209	0xbe340a73	-0.17582111
210	0x3c81179f	0.015758334
211	0xbdd9dddc	-0.106380194
212	0x3f44ec0f	0.76922697
213	0x3dc41fe5	0.09576396
214	0x3e6bf7e6	0.23043784
215	0xbeb38835	-0.35064855
216	0xbdb09166	-0.086214826
217	0x3e4eba98	0.20188367
218	0x3c9d8811	0.01922992
219	0x3e44edd4	0.19231349
220	0xbdd4a770	-0.10383499
221	0x3e6f4b13	0.23368482
222	0x3ec931ac	0.3929571
223	0xbe54c809	-0.20779432
224	0x3e0ea650	0.1393063
225	0x3ec857ab	0.39129385
226	0x3e916d0a	0.28403503
227	0xbe7313aa	-0.2373797
228	0x3efb4eb4	0.49083483
229	0xbed0cb78	-0.40780234
230	0x3e826853	0.25470218
231	0xbee9ede2	-0.45689303
232	0xbe9d6313	-0.3073965
233	0xbdccf717	-0.10008066
234	0x3dc8893a	0.09791799
235	0xbf13bcb3	-0.5770981
236	0xbf81e0ee	-1.0146768
237	0x3d52e527	0.051488068
238	0xbe8ff515	-0.2811667
239	0xbe60a985	-0.21939667
240	0xbee47d00	-0.44626617
241	0x3f0afcc6	0.5429195
242	0xbf064f77	-0.52465004
243	0x3e652ccb	0.22380368
244	0xbd57c150	-0.05267459
245	0xbe335853	-0.17514162
246	0xbce62784	-0.028095014
247	0xbe56e879	-0.20987119
248	0x3ec9e018	0.39428782
249	0x3e1dff89	0.1542951
250	0xbd13c3c0	-0.036075354
251	0xbebe50bc	-0.3717097
252	0xbebd417f	-0.36964032
253	0x3d62e762	0.055396445
254	0xbe0983ca	-0.1342918
255	0xbe7e2c28	-0.24821532

tfl.pseudo_qconst i1 [50, 100]
0	0xc7	-57
1	0x81	-127
2	0x2b	43
3	0xa0	-96
4	0x4a	74
5	0x04	4
6	0x4f	79
7	0x4a	74
8	0x64	100
9	0x42	66
10	0x84	-124
11	0x38	56
12	0x04	4
13	0xd6	-42
14	0xc2	-62
15	0x49	73
16	0xba	-70
17	0x3b	59
18	0xb2	-78
19	0xf1	-15
20	0x1c	28
21	0xc6	-58
22	0x48	72
23	0x44	68
24	0xcd	-51
25	0xab	-85
26	0xbd	-67
27	0xca	-54
28	0xe0	-32
29	0x65	101
30	0x06	6
31	0x6a	106
32	0x15	21
33	0x98	-104
34	0xfc	-4
35	0xff	-1
36	0xb1	-79
37	0xb0	-80
38	0x39	57
39	0xa2	-94
40	0x44	68
41	0xb0	-80
42	0xe7	-25
43	0x8a	-118
44	0x28	40
45	0x8f	-113
46	0x49	73
47	0x34	52
48	0x3d	61
49	0x32	50
50	0x1a	26
51	0xc2	-62
52	0x9b	-101
53	0xee	-18
54	0xef	-17
55	0xce	-50
56	0x9a	-102
57	0x33	51
58	0xbe	-66
59	0x72	114
60	0xa2	-94
61	0xd9	-39
62	0xa9	-87
63	0xde	-34
64	0xf0	-16
65	0xe3	-29
66	0xff	-1
67	0xa8	-88
68	0x2e	46
69	0xf2	-14
70	0xf9	-7
71	0xd8	-40
72	0x0d	13
73	0xe4	-28
74	0x9b	-101
75	0xa0	-96
76	0x39	57
77	0x16	22
78	0xe1	-31
79	0x0f	15
80	0xc8	-56
81	0xbc	-68
82	0x34	52
83	0x30	48
84	0xfd	-3
85	0xf0	-16
86	0x34	52
87	0x0d	13
88	0x16	22
89	0x00	0
90	0x47	71
91	0xc8	-56
92	0xb9	-71
93	0x12	18
94	0x8c	-116
95	0x4a	74
96	0x9b	-101
97	0x6d	109
98	0x8a	-118
99	0x13	19
100	0x04	4
101	0x09	9
102	0x1f	31
103	0x0b	11
104	0xf5	-11
105	0x08	8
106	0xf4	-12
107	0xfc	-4
108	0x03	3
109	0xfa	-6
110	0x03	3
111	0x14	20
112	0x11	17
113	0x1c	28
114	0xdc	-36
115	0xfe	-2
116	0x14	20
117	0x07	7
118	0xfc	-4
119	0xeb	-21
120	0x04	4
121	0x0b	11
122	0xfb	-5
123	0x0d	13
124	0x0f	15
125	0xf8	-8
126	0xeb	-21
127	0xe6	-26
128	0x02	2
129	0x81	-127
130	0xeb	-21
131	0xe7	-25
132	0x16	22
133	0x00	0
134	0x05	5
135	0xfd	-3
136	0xed	-19
137	0xf6	-10
138	0xfa	-6
139	0x12	18
140	0xff	-1
141	0xb4	-76
142	0xf8	-8
143	0xff	-1
144	0xed	-19
145	0x05	5
146	0x71	113
147	0x16	22
148	0x0b	11
149	0x0c	12
150	0xfb	-5
151	0x09	9
152	0x09	9
153	0xf4	-12
154	0xff	-1
155	0x06	6
156	0xea	-22
157	0x16	22
158	0x08	8
159	0x14	20
160	0x12	18
161	0xfe	-2
162	0x02	2
163	0xf4	-12
164	0x0d	13
165	0xfa	-6
166	0xed	-19
167	0xe7	-25
168	0xfa	-6
169	0xe0	-32
170	0x25	37
171	0x09	9
172	0x03	3
173	0xf3	-13
174	0x04	4
175	0xf0	-16
176	0xf8	-8
177	0x04	4
178	0x06	6
179	0xaf	-81
180	0x00	0
181	0x0f	15
182	0xfb	-5
183	0xeb	-21
184	0xd2	-46
185	0xfe	-2
186	0xfb	-5
187	0xfb	-5
188	0x0a	10
189	0x09	9
190	0x01	1
191	0xfa	-6
192	0x0d	13
193	0x04	4
194	0x10	16
195	0x0a	10
196	0xeb	-21
197	0xeb	-21
198	0x06	6
199	0x0f	15
200	0xd4	-44
201	0xc0	-64
202	0xcd	-51
203	0xe3	-29
204	0xdc	-36
205	0x09	9
206	0x12	18
207	0xc7	-57
208	0x00	0
209	0xf1	-15
210	0xfc	-4
211	0xce	-50
212	0xfc	-4
213	0xaf	-81
214	0xf7	-9
215	0xf5	-11
216	0x1d	29
217	0xe3	-29
218	0xf3	-13
219	0xe7	-25
220	0xeb	-21
221	0xf0	-16
222	0xf4	-12
223	0x10	16
224	0x01	1
225	0x0f	15
226	0xd5	-43
227	0x06	6
228	0x2b	43
229	0x8a	-118
230	0x22	34
231	0x0d	13
232	0x11	17
233	0xfe	-2
234	0xee	-18
235	0xc9	-55
236	0xe8	-24
237	0x1f	31
238	0x1d	29
239	0x34	52
240	0xff	-1
241	0xe6	-26
242	0x0c	12
243	0x15	21
244	0x97	-105
245	0x42	66
246	0x7f	127
247	0xbb	-69
248	0xdd	-35
249	0x20	32
250	0xa0	-96
251	0x2a	42
252	0xff	-1
253	0x1d	29
254	0x10	16
255	0xee	-18

sequential/dense/MatMul i1 [100, 12]
0	0xfa	-6
1	0x15	21
2	0x81	-127
3	0x0c	12
4	0xca	-54
5	0xfe	-2
6	0x14	20
7	0x1f	31
8	0x12	18
9	0x05	5
10	0xea	-22
11	0x24	36
12	0x2c	44
13	0x1a	26
14	0x81	-127
15	0xe1	-31
16	0xaa	-86
17	0x0b	11
18	0x2e	46
19	0x00	0
20	0xec	-20
21	0x2d	45
22	0x25	37
23	0x21	33
24	0x8e	-114
25	0xe7	-25
26	0x08	8
27	0x34	52
28	0xdf	-33
29	0x81	-127
30	0xb8	-72
31	0x26	38
32	0x6d	109
33	0xfb	-5
34	0x11	17
35	0x1e	30
36	0xc2	-62
37	0x25	37
38	0x29	41
39	0xf1	-15
40	0xd3	-45
41	0x81	-127
42	0x40	64
43	0xeb	-21
44	0xd5	-43
45	0x73	115
46	0x61	97
47	0x4a	74
48	0x8d	-115
49	0xe0	-32
50	0x7f	127
51	0x01	1
52	0x42	66
53	0xc8	-56
54	0x42	66
55	0xf6	-10
56	0x50	80
57	0x0f	15
58	0x09	9
59	0xd8	-40
60	0x26	38
61	0x34	52
62	0x81	-127
63	0x2a	42
64	0x12	18
65	0xc1	-63
66	0xf7	-9
67	0x14	20
68	0x1a	26
69	0x03	3
70	0xd9	-39
71	0x1c	28
72	0x59	89
73	0xf5	-11
74	0x7e	126
75	0x7f	127
76	0x95	-107
77	0x37	55
78	0x0d	13
79	0xf2	-14
80	0xe7	-25
81	0xe2	-30
82	0xf0	-16
83	0xe0	-32
84	0x0a	10
85	0x0f	15
86	0x81	-127
87	0xe6	-26
88	0xe0	-32
89	0x10	16
90	0xf3	-13
91	0xcd	-51
92	0xed	-19
93	0x59	89
94	0xd8	-40
95	0x17	23
96	0xfb	-5
97	0x8e	-114
98	0x02	2
99	0xa9	-87
100	0x84	-124
101	0x4e	78
102	0xd4	-44
103	0x81	-127
104	0xe0	-32
105	0xf1	-15
106	0x8d	-115
107	0xa9	-87
108	0xd9	-39
109	0x8e	-114
110	0x3c	60
111	0xd6	-42
112	0x0f	15
113	0xe9	-23
114	0x92	-110
115	0x81	-127
116	0x84	-124
117	0x12	18
118	0x99	-103
119	0x4e	78
120	0x81	-127
121	0x3f	63
122	0x91	-111
123	0x88	-120
124	0xaf	-81
125	0xf2	-14
126	0x11	17
127	0x52	82
128	0x64	100
129	0x51	81
130	0x6d	109
131	0xf0	-16
132	0x1f	31
133	0xf1	-15
134	0xbf	-65
135	0xe9	-23
136	0x81	-127
137	0xf2	-14
138	0x04	4
139	0x13	19
140	0xf6	-10
141	0x12	18
142	0x12	18
143	0x1b	27
144	0x22	34
145	0x1a	26
146	0x81	-127
147	0x30	48
148	0x36	54
149	0xca	-54
150	0x0b	11
151	0xf4	-12
152	0xfd	-3
153	0x11	17
154	0xf4	-12
155	0x02	2
156	0xf6	-10
157	0x2d	45
158	0x3e	62
159	0xdf	-33
160	0x83	-125
161	0x81	-127
162	0x3a	58
163	0xe3	-29
164	0xdd	-35
165	0xe3	-29
166	0xb3	-77
167	0x19	25
168	0x02	2
169	0x0f	15
170	0x0b	11
171	0x69	105
172	0xf0	-16
173	0x7f	127
174	0xc0	-64
175	0xbb	-69
176	0xf2	-14
177	0x0c	12
178	0xec	-20
179	0x11	17
180	0x03	3
181	0x37	55
182	0xc8	-56
183	0x3a	58
184	0x20	32
185	0x02	2
186	0xf5	-11
187	0x52	82
188	0x81	-127
189	0x43	67
190	0xf3	-13
191	0x03	3
192	0x3d	61
193	0xde	-34
194	0x7f	127
195	0x11	17
196	0x19	25
197	0xbd	-67
198	0xc9	-55
199	0xd5	-43
200	0x30	48
201	0x0e	14
202	0xeb	-21
203	0xf8	-8
204	0xdf	-33
205	0x01	1
206	0x81	-127
207	0x39	57
208	0xec	-20
209	0x5c	92
210	0x35	53
211	0xac	-84
212	0x3d	61
213	0xde	-34
214	0x3f	63
215	0x04	4
216	0xf2	-14
217	0x26	38
218	0x57	87
219	0x85	-123
220	0xce	-50
221	0x24	36
222	0x20	32
223	0xa3	-93
224	0x98	-104
225	0x90	-112
226	0xac	-84
227	0x81	-127
228	0x33	51
229	0xfe	-2
230	0xe8	-24
231	0xdf	-33
232	0x2e	46
233	0x7f	127
234	0xf6	-10
235	0xf0	-16
236	0xe9	-23
237	0x1e	30
238	0xe0	-32
239	0x12	18
240	0xa4	-92
241	0xe9	-23
242	0x17	23
243	0xa9	-87
244	0x0f	15
245	0x81	-127
246	0x3a	58
247	0x55	85
248	0xd1	-47
249	0xe5	-27
250	0x45	69
251	0x09	9
252	0x19	25
253	0x1d	29
254	0x64	100
255	0xcc	-52
